model_weights/vit-head-fer2013.pth (torch, 23054 bytes, 2 tensors)

weight f4 [7, 768]
00000000: 6f5c 513c 4b23 573c 5391 dabc a78a 863b
00000010: e168 13bd ca0d cf3c 7e4c 833a 9f41 81bc
00000020: 40a7 8d3c 9a28 04bb ee11 9b3c c6a9 213a
00000030: 23c0 963c 06c8 573b 3dee 92bb b238 05bd
00000040: 7cc7 183c 286f 31ba 2337 21b9 7fca 263c
00000050: 86cb 763b ea6a 8e3c 5c1c 373c ce5e 0abc
00000060: 3d20 363a 87da 213d f639 cabc 6e56 b43c
00000070: b049 f23b bc26 c43c 0257 013c 082f ef3c
00000080: cff6 9a3c 40c9 443d 18bc 7ebc bad5 33bd
00000090: 37b8 023c 5a6f c2bc 6365 053d e0b2 503b
000000a0: 4295 213d e901 b9bb d474 4b3c 55be 6abc
000000b0: ae25 6fbb e8d9 f2bc 6354 fc3b ba4e 593c
000000c0: 98d2 24bd 298f 063c 8d3e 72bc 5df7 a5bb
000000d0: c7f9 3bbc 85b6 adbc 2b8a cc3c 85f6 843c
000000e0: 9462 c53b 2f67 b4bb 1d4c 0b3d 0dee 00bc
000000f0: bda5 f9bc ead5 6c3c 9c88 203d d7c9 c6bc
00000100: e94b 34bb 1854 c2bc 09b5 33ba 9291 e73c
00000110: fcb0 293c f5b9 c0ba b02d 86bc ad3a 0dbd
00000120: be74 bfbc 7b05 06bc 5025 bcbc d4f1 8ebd
00000130: 6cbb e7bc 0b92 d13b 5bc7 ebbb d300 7dbc
00000140: 605d ad3c 1487 6d3c cbe1 29bc 903c 043c
00000150: bc6d 5cbb 30de 2a3c fd18 be3a cbcb e33b
00000160: 935a 1c3c 997f 2dbc 3218 783c fb19 933c
00000170: f6d6 153d 4045 91bd 1e57 1ebd 16a9 b73b
00000180: a296 f23c 2ceb 623c 287e 8c3c 9a61 b53c
00000190: cded 4cbd 485e 0a3d d7fa 1b3b 6c1c bb3c
000001a0: b439 ee3b 2379 113b cfa1 0b3d bbb4 83bc
000001b0: 4d38 e13c 049f b7bc 42e8 563c fa94 753c
000001c0: 753b 93bb 84bf 363c e628 913b dc1a 8f3c
000001d0: a3bc ab3c d48e 523c ebcb 033c 5964 a23b
000001e0: 5603 4e3c 5f62 cb3b 2a19 2b3c 79b7 113c
000001f0: 900c b63b 6db7 ef3b ca7a ce3c 5af2 853c
00000200: 6740 fa3b 1519 7b3c 9887 78ba 7066 f2bb
00000210: 5980 9abc f1d4 efbc b67c 8cbb f2e5 17bd
00000220: 995f f73c 1c49 a7bc 538b 06bc a2f9 bfbc
00000230: 7799 2a3c eaea 823c 1656 683c ca61 b4bc
00000240: 0673 053d 8974 78bc f21a 453c 6e9f afbc
00000250: 6a22 193d dbc5 653c ea3e de3b dd7f 12bc
00000260: f07e 64bc 2909 6f3c a810 1e3b 1ad0 05bd
00000270: 5cfd 433c 8213 a03c 2f7d e6bb 8d3e 753d
00000280: ea5c d0ba 5b23 54bc 68b0 a9ba 5adc 57bc
00000290: 35b9 5f3c a077 01bc 4459 0e3c dcaa 07bd
000002a0: f5d8 07bc 8069 a5bc a000 32bc c5c2 693c
000002b0: ea02 1e3c f130 acbc 6368 453b dbe0 d2bc
000002c0: 355d b63c 426a 233c e211 4bbc fe6e 0abd
000002d0: 0b55 23bb 3693 0a3c 16c2 a1bc 184a b5bc
000002e0: 9614 d93c e5f3 ce3c 124a 383d c05a eaba
000002f0: 3b1d 1f3c b0ef 91bc 736c a03c b450 56bc
00000300: 5aa8 21bc a978 1dbc d56d 963c 5fc8 51bc
00000310: a7fe 75bb bb04 61bc 028f 763c 7f30 95bb
00000320: 0f80 81bc 4191 af3c 4a6c 133c c4e9 78ba
00000330: 6ac8 243c d51c 123b 797e bbbb 0fa7 54bb
00000340: 37ba 0e3c 76fe 99bc 2594 3cbd 68dc c83a
00000350: 0fe2 cabc 8adc de3c a5ea f33c 8043 5ebc
00000360: 3706 c3bc 1094 a9bb 4f2a 11bc 5b6a 10bc
00000370: 14b6 1d3c 7833 30bc a321 dabc 9207 bb3c
00000380: c50c f8bb f16a e4bc 7f83 6dbc e7b9 7039
00000390: 1d04 45bc 56df 07bc e55d 9c3c def7 27bc
000003a0: b77f f1bb a38f 93bc 5efe 0d3d 6b98 c03c
000003b0: a681 98bc fab5 b63b 170c 17bc f216 88bc
000003c0: 7032 a23c d99e aebc 2bc3 3c3c 9673 ddba
000003d0: 8b42 c93b e932 d3bc 3769 043c 11e0 81bb
000003e0: 6c83 4e3c e7d3 d0ba 7c26 683d b6d9 20b8
000003f0: dc30 8bbb 29ba b9bc 528e e0bb 67fb f2ba
0.012778386 0.013130973 -0.026680624 0.004105884 -0.035988692 0.02527513 0.0010017303 -0.01577836
0.017291665 -0.0020165802 0.018929448 0.0006166961 0.018402165 0.003292562 -0.0044839666 -0.032524772
0.0093249045 -0.0006768578 -0.00015374697 0.010180115 0.003765793 0.017384965 0.011176195 -0.008445455
0.0006947553 0.039515045 -0.024685841 0.02201387 0.007394038 0.023944251 0.007894279 0.029197231
0.018916516 0.04804349 -0.015547775 -0.043904997 0.007978491 -0.023734737 0.032567393 0.00318449
0.039448984 -0.0056459797 0.012417991 -0.014327605 -0.0036490965 -0.029644921 0.0077004894 0.013263399
-0.0402399 0.008212843 -0.014785421 -0.0050648884 -0.011473126 -0.021205196 0.024968227 0.01623083
0.0060237143 -0.0055054645 0.034008134 -0.007869256 -0.030474538 0.014455298 0.03919278 -0.024266167
-0.0027511066 -0.02372174 -0.00068552844 0.028267656 0.010357138 -0.0014703857 -0.016379207 -0.034479786
-0.023371097 -0.008180018 -0.02296701 -0.06979719 -0.028287612 0.0063955835 -0.007195396 -0.015442091
0.021162689 0.014497537 -0.010368775 0.00807108 -0.0033634743 0.01042895 0.0014503297 0.0069517842
0.009543079 -0.010589504 0.015142487 0.017956724 0.036581956 -0.070932865 -0.0386573 0.0056048734
0.029612843 0.013850015 0.01715 0.022141267 -0.050031472 0.03378132 0.0023800635 0.022840701
0.0072700623 0.0022197447 0.03408986 -0.01607739 0.027492667 -0.022414692 0.013116898 0.014989132
-0.004493172 0.011154059 0.0044299243 0.017468862 0.020963972 0.012851436 0.008044223 0.00495581
0.012574038 0.006206795 0.010443011 0.008893841 0.005555697 0.007315567 0.025205035 0.016350914
0.007637072 0.015325804 -0.0009480654 -0.0073974654 -0.018860029 -0.029276343 -0.0042873276 -0.037084527
0.030196952 -0.020420603 -0.008211928 -0.023434464 0.010412565 0.015981156 0.014180681 -0.022019286
0.032580398 -0.015164503 0.01203035 -0.021438327 0.037386335 0.014024223 0.0067824023 -0.008941618
-0.01394628 0.014589586 0.0024118815 -0.032669164 0.011962261 0.019540552 -0.007033966 0.059874106
-0.0015896831 -0.0129478825 -0.001294625 -0.0131750945 0.013654997 -0.007902056 0.008688275 -0.03312193
-0.008291473 -0.020191908 -0.010864407 0.014267628 0.009644249 -0.02101943 0.0030122034 -0.025741985
0.022261241 0.009974064 -0.0123944 -0.033797257 -0.0024922516 0.008457949 -0.019745868 -0.022130057
0.026499074 0.025262782 0.044992514 -0.0017879829 0.009711559 -0.017814487 0.019582963 -0.013080765
-0.009866798 -0.009611287 0.018362919 -0.01280412 -0.0037535818 -0.013734038 0.015048744 -0.0045529003
-0.015808133 0.021431567 0.008997986 -0.0009495283 0.010057548 0.0022295017 -0.005721864 -0.0032448207
0.008711389 -0.018798094 -0.04603972 0.0015324475 -0.024765996 0.02720477 0.029774973 -0.013565898
-0.023806674 -0.005175121 -0.008860185 -0.00881442 0.00962593 -0.010754459 -0.026627367 0.022830758
-0.0075698816 -0.027883025 -0.014496683 0.00022957438 -0.012024906 -0.0082929935 0.019087741 -0.010251967
-0.007369961 -0.018012827 0.03466641 0.023510179 -0.018616509 0.0055758925 -0.009219191 -0.016612504
0.019799441 -0.021315979 0.011521141 -0.0016895409 0.0061419657 -0.025781112 0.008081726 -0.0039634784
0.012604576 -0.0015932292 0.056677327 -3.834973e-05 -0.004247768 -0.022671776 -0.0068529034 -0.0018538059

bias f4 [7]
00000000: 0000 0000 0000 0000 0000 0000 0000 0000
00000010: 0000 0000 0000 0000 0000 0000
0.0 0.0 0.0 0.0 0.0 0.0 0.0
